…
l\nmodel.load_state_dict(state_dict)\n\n# Move the model to the specified device\nmodel.to(device)","metadata":{"trusted":true,"execution":{"iopub.status.busy":"2024-11-25T02:35:33.122281Z","iopub.execute_input":"2024-11-25T02:35:33.122723Z","iopub.status.idle":"2024-11-25T02:35:35.953372Z","shell.execute_reply.started":"2024-11-25T02:35:33.122689Z","shell.execute_reply":"2024-11-25T02:35:35.952555Z"}},"outputs":[{"execution_count":48,"output_type":"execute_result","data":{"text/plain":"MultimodalVQAModel(\n  (text_encoder): BertModel(\n    (embeddings): BertEmbeddings(\n      (word_embeddings): Embedding(30522, 768, padding_idx=0)\n      (position_embeddings): Embedding(512, 768)\n      (token_type_embeddings): Embedding(2, 768)\n      (LayerNorm): LayerNorm((768,), eps=1e-12, elementwise_affine=True)\n      (dropout): Dropout(p=0.1, inplace=False)\n    )\n    (encoder): BertEncoder(\n      (layer): ModuleList(\n        (0-11): 12 x BertLayer(\n          (attention): BertAttention(\n            (self): BertSdpaSelfAttention(\n              (query): Linear(in_features=768, out_features=768, bias=True)\n              (key): Linear(in_features=768, out_features=768, bias=True)\n              (value): Linear(in_features=768, out_features=768, bias=True)\n              (dropout): Dropout(p=0.1, inplace=False)\n            )\n            (output): BertSelfOutput(\n              (dense): Linear(in_features=768, out_features=768, bias=True)\n              (LayerNorm): LayerNorm((768,), eps=1e-12, elementwise_affine=True)\n              (dropout): Dropout(p=0.1, inplace=False)\n            )\n          )\n          (intermediate): BertIntermediate(\n            (dense): Linear(in_features=768, out_features=3072, bias=True)\n            (intermediate_act_fn): GELUActivation()\n          )\n          (output): BertOutput(\n            (dense): Linear(in_features=3072, out_features=768, bias=True)\n            (LayerNorm): LayerNorm((768,), eps=1e-12, elementwise_affine=True)\n            (dropout): Dropout(p=0.1, inplace=False)\n          )\n        )\n      )\n    )\n    (pooler): BertPooler(\n      (dense): Linear(in_features=768, out_features=768, bias=True)\n      (activation): Tanh()\n    )\n  )\n  (image_encoder): ViTModel(\n    (embeddings): ViTEmbeddings(\n      (patch_embeddings): ViTPatchEmbeddings(\n        (projection): Conv2d(3, 768, kernel_size=(16, 16), stride=(16, 16))\n      )\n      (dropout): Dropout(p=0.0, inplace=False)\n    )\n    (encoder): ViTEncoder(\n      (layer): ModuleList(\n        (0-11): 12 x ViTLayer(\n          (attention): ViTSdpaAttention(\n            (attention): ViTSdpaSelfAttention(\n              (query): Linear(in_features=768, out_features=768, bias=True)\n              (key): Linear(in_features=768, out_features=768, bias=True)\n              (value): Linear(in_features=768, out_features=768, bias=True)\n              (dropout): Dropout(p=0.0, inplace=False)\n            )\n            (output): ViTSelfOutput(\n              (dense): Linear(in_features=768, out_features=768, bias=True)\n              (dropout): Dropout(p=0.0, inplace=False)\n            )\n          )\n          (intermediate): ViTIntermediate(\n            (dense): Linear(in_features=768, out_features=3072, bias=True)\n            (intermediate_act_fn): GELUActivation()\n          )\n          (output): ViTOutput(\n            (dense): Linear(in_features=3072, out_features=768, bias=True)\n            (dropout): Dropout(p=0.0, inplace=False)\n          )\n          (layernorm_before): LayerNorm((768,), eps=1e-12, elementwise_affine=True)\n          (layernorm_after): LayerNorm((768,), eps=1e-12, elementwise_affine=True)\n        )\n      )\n    )\n    (layernorm): LayerNorm((768,), eps=1e-12, elementwise_affine=True)\n    (pooler): ViTPooler(\n      (dense): Linear(in_features=768, out_features=768, bias=True)\n      (activation): Tanh()\n    )\n  )\n  (fusion): Sequential(\n    (0): Linear(in_features=1536, out_features=512, bias=True)\n    (1): ReLU()\n    (2): Dropout(p=0.5, inplace=False)\n  )\n  (classifier): Linear(in_features=512, out_features=582, bias=True)\n  (criterion): CrossEntropyLoss()\n)"},"metadata":{}}],"execution_count":48},{"cell_type":"markdown","source":"- Selects a subset of the test dataset from index 2000 to 2005 (5 samples) for inference or evaluation.\n- collator(...): Passes this subset through the collator, which formats and preprocesses the batch to make it compatible with the models 
…
